model.pth (torch, 249317 bytes, 10 tensors)

conv1.weight f4 [6, 3, 5, 5]
0	0xbd7a653d	-0.061131705
1	0x3d8789c3	0.06618073
2	0x3dcc513f	0.09976434
3	0xbd067b14	-0.03283222
4	0xbda4bf84	-0.08044341
5	0xbdad04ef	-0.08448207
6	0x3d68e166	0.05685558
7	0xbde74c29	-0.11293823
8	0xbde092e5	-0.10965518
9	0x3d847af9	0.06468768
10	0x3beba04a	0.007190739
11	0xbc714929	-0.014726915
12	0x3d7f34e0	0.062306285
13	0xbdb220be	-0.08697651
14	0xbd403762	-0.046927817
15	0xbc692602	-0.014230253
16	0x3dc90162	0.09814717
17	0x3bf1ab65	0.007375168
18	0xbda71818	-0.081588924
19	0x3d84d9d8	0.06486863
20	0x3db84c88	0.08998972
21	0x3d96cc94	0.07363239
22	0x3cce24a9	0.025163965
23	0x3d12f9b4	0.035882667
24	0x3d70f3de	0.05882632
25	0x3d120b01	0.035655025
26	0xbc6f7407	-0.014615065
27	0x3db274a0	0.08713651
28	0x3c5c2bda	0.013438189
29	0x3d7b7164	0.061387435
30	0xbc95b0ee	-0.018272843
31	0xbd3e18f9	-0.046410535
32	0x3dcc14a5	0.09964875
33	0x3c8a8853	0.016910708
34	0x3dc0dca2	0.09417082
35	0xbd9e3610	-0.07725155
36	0xbd1a482c	-0.037666485
37	0xbde7b7d2	-0.11314358
38	0xbd569d38	-0.05239603
39	0x3d40afc6	0.04704263
40	0xbcec38e8	-0.028835729
41	0x3dd0c87b	0.101944886
42	0x3d544d27	0.05183139
43	0xbdba67f9	-0.091018625
44	0x3d7d93fc	0.061908707
45	0xbd0cd7c8	-0.034385473
46	0xbd01c10d	-0.03167825
47	0x3d9cfe7c	0.076657265
48	0xbcf9bf48	-0.030486718
49	0xbd9265d3	-0.07148328
50	0xbcbcabd2	-0.023031149
51	0xbde4d6af	-0.1117376
52	0x3dd87981	0.1057005
53	0xbdb0d53f	-0.086344235
54	0xbdd7d6b7	-0.105390005
55	0xbdbef034	-0.09323159
56	0xbd9e181c	-0.07719442
57	0xbc9730bb	-0.018455854
58	0x3d001279	0.031267617
59	0x3dd914f9	0.10599703
60	0xbdd47d5b	-0.10375472
61	0xbd9b6209	-0.07587058
62	0xbdc1de13	-0.094661854
63	0x3d5c4daa	0.053785004
64	0xbdc2b793	-0.0950767
65	0xbd927feb	-0.07153305
66	0xbd9eb97c	-0.07750222
67	0xbcab19c1	-0.020886304
68	0xbd61f7b7	-0.05516788
69	0x3ce9d37c	0.028543226
70	0x3d8cf6c8	0.06883007
71	0xbd33a2d3	-0.043856453
72	0x3d68ac11	0.05680472
73	0xbdc36091	-0.09539903
74	0x3de23669	0.11045534
75	0xbcfe63b2	-0.031053398
76	0xbd3475d4	-0.044057682
77	0xbdea71e5	-0.11447505
78	0x3cac7290	0.021050721
79	0x3dcda6d7	0.10041588
80	0xbdd7f1c7	-0.10544162
81	0xbd3b76c8	-0.045767576
82	0xbbcd478f	-0.006264634
83	0x3d794839	0.060859893
84	0x3d5d1834	0.05397816
85	0x3dbe711b	0.09298917
86	0xbce0176f	-0.027354924
87	0x3dbadd81	0.0912428
88	0xbd41fb31	-0.047358695
89	0x3c0f36b5	0.0087410705
90	0xbd50c6c9	-0.050970826
91	0xbd9a6e11	-0.07540525
92	0x3db352e4	0.087560445
93	0x3c802654	0.015643276
94	0x3dc27932	0.094957724
95	0x3c351e4a	0.011054585
96	0xbdbfc101	-0.093629844
97	0xbdab4b92	-0.08364023
98	0xbd12fefb	-0.0358877
99	0xbd429ecc	-0.04751472
100	0x3de2a3b4	0.1106638
101	0xbd86650f	-0.06562244
102	0x3db043be	0.08606671
103	0x3d38b7b9	0.045097087
104	0xbdca506f	-0.09878623
105	0xbd464547	-0.04840591
106	0xbd1acada	-0.03779111
107	0x3db8f6b0	0.09031427
108	0xbd09cd91	-0.03364331
109	0xbd1f512b	-0.038895767
110	0xbd53c717	-0.05170354
111	0x3dde7438	0.10862011
112	0x3daca479	0.08429808
113	0xbd7ddce6	-0.061978243
114	0xbca33894	-0.01992444
115	0xbd8a95fa	-0.06766887
116	0x3d0769bb	0.033059817
117	0x3dc04139	0.0938744
118	0x3d84c5be	0.06483029
119	0x3d4e5339	0.050372336
120	0xbd79b810	-0.06096655
121	0xbda128c4	-0.078691036
122	0x3d443473	0.047901582
123	0x3b689422	0.0035488685
124	0x3d2419db	0.04006372
125	0xbda1ed1b	-0.079065524
126	0x3d5e6937	0.05429956
127	0x3d13a8c3	0.036049616
128	0x3ddeabb4	0.108725935
129	0xbd956d46	-0.07296233
130	0xbdad9fec	-0.08477768
131	0x3d2f50ea	0.042801775
132	0xbdeaac5c	-0.11458656
133	0x3de19553	0.110148095
134	0xbc9edaa7	-0.019391371
135	0xbcaa2747	-0.020770682
136	0xbcdf0018	-0.027221724
137	0xbd784af1	-0.060618345
138	0x3c9d7416	0.019220393
139	0x3d608000	0.05480957
140	0x3bf5afe4	0.0074977744
141	0xbd8cb918	-0.06871241
142	0xbda7c628	-0.08192092
143	0x3d812855	0.06306521
144	0xbdebea45	-0.11519293
145	0xbd2bb8d5	-0.041924316
146	0xbddc7b5f	-0.10765719
147	0xbb965178	-0.0045873486
148	0xbd814874	-0.063126475
149	0xbd553d7c	-0.05206059
150	0xbba95762	-0.0051678875
151	0x3deb0168	0.114748776
152	0xbdb5b4c8	-0.08872372
153	0xbcd887b3	-0.026431894
154	0x3c9e8c77	0.019354088
155	0x3d04f991	0.032464568
156	0x3cbf1426	0.023325037
157	0xbdaf2963	-0.08552816
158	0xbd9216ca	-0.07133253
159	0x3c84d773	0.016216015
160	0x3cf716a1	0.030162157
161	0xbdea0aba	-0.11427827
162	0x3ca794ed	0.020456756
163	0x3c562845	0.013071124
164	0xbcccf50b	-0.02501919
165	0xbd4856ee	-0.048911028
166	0xbb7c2401	-0.0038473608
167	0x3b8373d0	0.0040116087
168	0x3de9d0bb	0.11416765
169	0x3ca6472f	0.020297615
170	0x3d9b44f9	0.07581515
171	0xbd8e5783	-0.06950285
172	0xbde83423	-0.11338069
173	0xbd8813bb	-0.06644388
174	0x3dc1b858	0.09458989
175	0xbde95b32	-0.11394347
176	0x3c77f780	0.015134692
177	0x3ddcc72c	0.107801765
178	0x3cd6b8a0	0.026211083
179	0xba94b8a8	-0.0011346536
180	0x3db80915	0.08986107
181	0x3db26e98	0.087125
182	0xbd8e1a1d	-0.069385745
183	0xbdb1b915	-0.0867788
184	0x3d3f09a5	0.046640057
185	0xbdb66ce2	-0.089074865
186	0xbcd7915f	-0.026314436
187	0x3d126a16	0.035745703
188	0x3d8bed96	0.06832425
189	0x3d4c14c6	0.0498245
190	0x3d801253	0.06253495
191	0xbc1af621	-0.009458096
192	0x3db93255	0.09042803
193	0xbd5fda52	-0.054651566
194	0xbda1c8c7	-0.07899623
195	0x3d7bce72	0.06147618
196	0xbd21c920	-0.03949845
197	0x3de9589b	0.11393853
198	0xbdc69bc5	-0.096976794
199	0xbc63a070	-0.013893232
200	0x3d9cf248	0.07663399
201	0xbd846385	-0.06464294
202	0xbca08a57	-0.019597216
203	0xbdc6c46f	-0.097054355
204	0xbd20e059	-0.039276455
205	0xba9a0cdf	-0.0011753103
206	0xbd857713	-0.06516852
207	0x3c6fd87c	0.014639016
208	0xbdba045a	-0.09082861
209	0xbc92bd11	-0.01791242
210	0xbd32eab9	-0.04368088
211	0xbd0370a5	-0.032089848
212	0xbd8c79cf	-0.06859171
213	0x3a903ff4	0.0011005388
214	0xbdd60dab	-0.10451826
215	0xbdeb4aed	-0.114889
216	0x3d1735d6	0.036916576
217	0xbd546cbe	-0.051861517
218	0xbc9c43b8	-0.01907526
219	0xbd601a51	-0.054712597
220	0xbd2dd987	-0.04244378
221	0x3dc042ab	0.09387716
222	0xbd5ddbc7	-0.054164674
223	0xbdbd93da	-0.09256716
224	0xbca06ee3	-0.019584125
225	0xbd4471eb	-0.047960203
226	0xbd82e23c	-0.06390807
227	0x3de83efd	0.11340139
228	0x3d9182a1	0.071049936
229	0xbd16b2e5	-0.0367917
230	0xbdbf857a	-0.093516305
231	0xbda1a78c	-0.07893285
232	0x3dc74c1d	0.09731314
233	0xbd71cd37	-0.0590336
234	0x3ddede70	0.1088227
235	0xbd76c494	-0.060246065
236	0xbdd856f2	-0.105634585
237	0x3d047405	0.032337207
238	0xbd1542e6	-0.036440752
239	0x3d9ce6ae	0.07661186
240	0xbd2fbc0c	-0.042903945
241	0x3dc790ea	0.09744437
242	0xbc5545d5	-0.013017138
243	0x3daf23a5	0.085517205
244	0x3d3d471a	0.046210386
245	0x3dd5da94	0.10442081
246	0x3d12c988	0.035836726
247	0x3dd9ce24	0.10635021
248	0x3c85161f	0.0162459
249	0x3d8d0fec	0.068878025
250	0x3dcdc55e	0.100474104
251	0xbcf0fa3c	-0.029416196
252	0xbdc4b0f0	-0.09604061
253	0xbda5dfa8	-0.080993
254	0x3b44a0bc	0.0030003032
255	0xbd3c31e3	-0.045946013

conv1.bias f4 [6]
0	0x3dd7a6d7	0.10529869
1	0x3dbefead	0.09325919
2	0x3d889a77	0.06670087
3	0x3dce83be	0.100837216
4	0xbd7f936d	-0.062396456
5	0x3cc9e397	0.024644656

conv2.weight f4 [16, 6, 5, 5]
0	0x3d11fde1	0.03564251
1	0x3d643717	0.0557166
2	0xbc17b884	-0.009260301
3	0xbc437f98	-0.011932276
4	0xbca789c8	-0.020451441
5	0xbb05b25d	-0.0020400502
6	0xbd07477a	-0.03302715
7	0x3d43925a	0.047746994
8	0x3d7908cd	0.06079941
9	0x3d8fc2d9	0.07019586
10	0x3c74fb52	0.014952498
11	0xbd8256d4	-0.063642174
12	0x3da69c0e	0.08135234
13	0x3d32c798	0.04364738
14	0x3d18b903	0.037285816
15	0x3d4e2c1a	0.050335027
16	0xbc52ae77	-0.0128589785
17	0xbc6fa4c5	-0.014626686
18	0xbd7eda63	-0.06221999
19	0xbd790c30	-0.06080264
20	0x3d83f992	0.06444086
21	0x3d798bfa	0.060924508
22	0x3c7fc15f	0.015610068
23	0x3d5db4c2	0.054127462
24	0x3c81bb75	0.015836457
25	0xbda19b7b	-0.07890984
26	0xbc474a21	-0.01216367
27	0xbd5d9ef8	-0.054106683
28	0xbce51e8c	-0.027968667
29	0x3d9f2339	0.0777039
30	0xbd9b9742	-0.075972095
31	0x3d214363	0.039370906
32	0xbcbcb470	-0.023035258
33	0xbce817ec	-0.02833172
34	0xbcbfba75	-0.02340434
35	0xbd1e2362	-0.038607962
36	0x3d835b01	0.06413842
37	0x3d38b501	0.045094494
38	0x3d3d60d0	0.046234906
39	0xbc4c9425	-0.012486492
40	0xbd6d6082	-0.057953365
41	0xbb97ddc1	-0.0046345894
42	0xbd303a11	-0.043024126
43	0xbbc69c87	-0.00606114
44	0xbd78395b	-0.060601573
45	0xbd6add7b	-0.057340126
46	0x3d360bb6	0.044444762
47	0x3c81cd9d	0.015845114
48	0x3cd89edc	0.026442938
49	0xbd9cda16	-0.07658784
50	0x3d00c704	0.031439796
51	0xbda376bc	-0.07981631
52	0xbd043ce5	-0.032284636
53	0xbd447b62	-0.04796923
54	0x3d00ff63	0.031493556
55	0x3c0c2dba	0.008555824
56	0x3d8c2d4e	0.06844579
57	0xbd4d5b17	-0.0501357
58	0xbc3b85ec	-0.011445504
59	0xbd4a748b	-0.04942755
60	0x3d0949c1	0.033517603
61	0x3c2d15eb	0.010564308
62	0x3c94e91e	0.018177565
63	0x3cb3c078	0.021942362
64	0x3c9c0ace	0.01904812
65	0x3da3b7b3	0.07994022
66	0xbd6cafa8	-0.057784706
67	0xbd80d54a	-0.06290682
68	0x3d6ec893	0.05829675
69	0xbc7a1769	-0.0152643705
70	0x3d05afb1	0.032638256
71	0xbd6cd60c	-0.05782132
72	0xbd8c9dc3	-0.06866028
73	0x3c249d68	0.010047294
74	0x3b9b66c2	0.0047424743
75	0x3d144da8	0.03620687
76	0xbbca85a9	-0.0061804843
77	0xbcc43ac2	-0.0239538
78	0x3da06b6d	0.0783299
79	0x3d800adf	0.062520735
80	0xbd0a4989	-0.033761535
81	0x3d906585	0.07050613
82	0xbc2c021b	-0.010498549
83	0xbd80839c	-0.062751025
84	0x3d88a983	0.06672957
85	0xbc1422c7	-0.009041495
86	0x3d556a5b	0.05210338
87	0xbc9a6091	-0.018844875
88	0xbd4d1d19	-0.050076578
89	0x3d8c0a95	0.06837956
90	0xbba08469	-0.004898597
91	0x3cf6324f	0.030053286
92	0xbc962664	-0.018328853
93	0x3d5875e1	0.052846793
94	0x3d15fb68	0.036616713
95	0x3d80454e	0.06263219
96	0xbc67fb44	-0.0141590275
97	0x3d3783a8	0.04480329
98	0x3cf817a5	0.030284712
99	0x3ce986f7	0.028506739
100	0xbc93c0b7	-0.01803623
101	0x3cd30e8a	0.025763769
102	0x3d87a1b2	0.06622638
103	0x3bbefb60	0.005828306
104	0x3d9c3300	0.07626915
105	0xbd73b608	-0.05949977
106	0xbd8ea5dc	-0.06965229
107	0x3d8f699b	0.070025645
108	0xbcaec71a	-0.021335173
109	0x3ab03e82	0.0013446363
110	0x3d0a75ef	0.033803876
111	0x3d910c3c	0.07082412
112	0x3b5ef5b5	0.0034020965
113	0xbda56ad3	-0.08077016
114	0xbd2027da	-0.039100505
115	0xbd237b86	-0.039912723
116	0x3d51a020	0.051178098
117	0xbd876279	-0.06610579
118	0xbd133f39	-0.035948966
119	0xbc3930a9	-0.011303105
120	0xbc80a1bf	-0.015702127
121	0xbcaacaac	-0.020848595
122	0x3c0d44bd	0.0086223455
123	0xbcf05c57	-0.029340906
124	0x3d0dd481	0.034626488
125	0xbb1acd0c	-0.0023620753
126	0xbd3ecb34	-0.04658051
127	0x3bd804b1	0.006592356
128	0xbcbe2aaf	-0.023213712
129	0xbd829f6a	-0.06378062
130	0xbd4319fa	-0.047632195
131	0xba61543a	-0.00085956196
132	0xbbca7e50	-0.0061796084
133	0xbd29f597	-0.04149398
134	0x3d286b24	0.041117802
135	0xbc202c5f	-0.009776204
136	0xbd1cb4dd	-0.038258422
137	0xbd522372	-0.051303335
138	0xbd829e9e	-0.0637791
139	0xbd4a8582	-0.04944373
140	0xbb3b38c0	-0.0028567761
141	0xbce2a9bf	-0.027668832
142	0x3d58199d	0.0527588
143	0xbd201b70	-0.039088666
144	0xbd7c4516	-0.061589323
145	0x3cf1b630	0.02950582
146	0xbcc7da85	-0.02439619
147	0xbd05d408	-0.032672912
148	0x3da4f41d	0.080543734
149	0xbd6dbede	-0.058043353
150	0x3d8f5a6a	0.06999667
151	0xbd24140d	-0.040058184
152	0x3c22d088	0.009937413
153	0x3bbc9a38	0.005755689
154	0xbcbff8c5	-0.023434052
155	0xbd29e71e	-0.041480176
156	0x3d73ccc7	0.059521463
157	0x3d8becdf	0.06832289
158	0xbd7e89e0	-0.062143207
159	0x3da6a4fa	0.081369355
160	0x3d1c1bf2	0.03811259
161	0xbd247a3a	-0.040155627
162	0x3c33aec1	0.010966958
163	0xbcdbd3ec	-0.02683445
164	0xbd30ed1c	-0.043194875
165	0x3d3d13e0	0.046161532
166	0xbc5b1d8f	-0.013373747
167	0xbbef8810	-0.007309921
168	0x3d42004b	0.04736356
169	0x3d0951d7	0.033525314
170	0xbcf6bb76	-0.030118685
171	0x3d59213d	0.053010214
172	0xbd6bfc45	-0.05761363
173	0xbc0440b7	-0.00807207
174	0x3ced3508	0.028955951
175	0xbd9b43a0	-0.07581258
176	0xbd51d24c	-0.051225945
177	0xbb735d47	-0.0037134455
178	0xbc425149	-0.0118602
179	0xbd3f3408	-0.04668048
180	0x3d2de44f	0.04245406
181	0x3d8fcbd8	0.07021302
182	0x3d7176ea	0.058951296
183	0x3cfc4fcb	0.030799767
184	0x3d87127e	0.06595324
185	0xbcc7d4ca	-0.024393458
186	0x3d5e8fc8	0.05433634
187	0xbc84ce76	-0.01621173
188	0xbc822d76	-0.015890818
189	0xbd04f2c4	-0.03245808
190	0xbd13ba83	-0.036066543
191	0x3d49e849	0.04929379
192	0x3cbbdaea	0.022931535
193	0xbd409ab5	-0.04702254
194	0x3d8a108f	0.067414396
195	0xbce348b9	-0.027744638
196	0x3b9dae7b	0.0048120595
197	0xbd8ee151	-0.069765694
198	0x3c04d308	0.008106954
199	0xbd7fcff0	-0.062454164
200	0xbd0e1fd7	-0.034698334
201	0xbc110ac9	-0.008852669
202	0xbd64042c	-0.05566804
203	0xbd8a8e22	-0.06765391
204	0x3d5f0bfa	0.05445478
205	0x3d8d10c7	0.06887966
206	0x3c717b40	0.014738858
207	0x3d698e81	0.057020668
208	0xbc975ce3	-0.018476909
209	0xbd54de0c	-0.051969573
210	0x3d67cdb0	0.056592643
211	0xbd1b6e34	-0.037946895
212	0xbc70a1bf	-0.014687001
213	0x3b7d1ebb	0.0038623053
214	0x3cc12da6	0.023581337
215	0x3afa36ea	0.0019089852
216	0xbbe2dabf	-0.006923049
217	0xb9ae7568	-0.0003327534
218	0xbbc54542	-0.006020219
219	0xbd2d8fb5	-0.042373378
220	0x3d6aeb71	0.05735344
221	0x3cc6f411	0.024286302
222	0xbc23db5a	-0.010001028
223	0x3c8368ff	0.016041277
224	0xbc8c722f	-0.01714429
225	0xbd993b2a	-0.07481988
226	0xbda50383	-0.080573104
227	0xbce5861a	-0.028018046
228	0xbd8d1458	-0.06888646
229	0xbd8faa03	-0.07014849
230	0x3d22a5b9	0.039708827
231	0xbd85cbe6	-0.06533031
232	0x3d8527c0	0.06501722
233	0x3cc799a0	0.024365246
234	0x3d15ddc4	0.036588445
235	0xbce1ae44	-0.027548917
236	0x3d629aea	0.05532352
237	0x3d162f15	0.036665995
238	0xbc59b69a	-0.0132881645
239	0x3b57b6ed	0.0032915429
240	0x3d09e79b	0.03366814
241	0xbd7c7aa4	-0.061640397
242	0xbcfc7260	-0.030816257
243	0xbc3a1f9f	-0.011360078
244	0xbd3d241c	-0.046177015
245	0xbce9e6a6	-0.028552365
246	0x3d98de47	0.07464271
247	0xbca8edb3	-0.020621156
248	0x3d9f6ec4	0.07784799
249	0xbd353a36	-0.044244967
250	0x3d28f194	0.04124601
251	0xbbbdfd83	-0.005798043
252	0xbd70c106	-0.05877783
253	0x3d84ae36	0.064785406
254	0x3d7182ac	0.05896251
255	0xbc2e056a	-0.010621408

conv2.bias f4 [16]
0	0x3d309218	0.043108076
1	0x3c4f0920	0.012636453
2	0xbcfbd3f1	-0.03074071
3	0xbc80ceef	-0.015723674
4	0xbd110a56	-0.035410248
5	0xbce46eec	-0.027884923
6	0xbd717ff2	-0.05895991
7	0x3c8901bd	0.016724462
8	0x3c92afd3	0.017906105
9	0xbd6f6cf8	-0.05845353
10	0x3ab3966a	0.0013701443
11	0xbd1cbfe4	-0.03826894
12	0x388617c5	6.394045e-05
13	0xbd89a637	-0.06721156
14	0x3d5d8d04	0.05408956
15	0xbc06556d	-0.008199078

fc1.weight f4 [120, 400]
0	0xbd104a44	-0.035227075
1	0xbb825dea	-0.0039784806
2	0x3c422214	0.011848945
3	0xbd196602	-0.037450798
4	0x3bc52c9e	0.0060172817
5	0x3d10e5fa	0.035375573
6	0x3cacfcd3	0.02111665
7	0x3ca0d1d8	0.019631311
8	0x3cf60468	0.030031398
9	0xbac8e6ef	-0.0015327613
10	0xbc4d22c1	-0.012520493
11	0x3c4d633e	0.012535868
12	0xbc36a737	-0.011148266
13	0x3c8b4898	0.017002389
14	0x3c2fc655	0.010728438
15	0x3bf91292	0.0076010907
16	0x3d1a7994	0.037713602
17	0x3ca9edcf	0.020743279
18	0x3bf50ee0	0.00747858
19	0x3acd1e2e	0.0015649253
20	0x3d2b9162	0.041886695
21	0xbd05a9f1	-0.032632772
22	0x3c89dc73	0.016828751
23	0x3c74af1f	0.01493433
24	0xbc352cb3	-0.01105802
25	0xbcc6abfa	-0.024251927
26	0x3ccd4fe4	0.025062509
27	0xbd3550ee	-0.044266634
28	0x3ba11652	0.004915991
29	0xbccf9867	-0.025341226
30	0xb9a34be9	-0.0003114634
31	0x3c39d982	0.011343362
32	0xbc9593ec	-0.018259011
33	0xbd03402e	-0.03204363
34	0x3d40cf4c	0.047072694
35	0x3d3389be	0.043832533
36	0xbcdd315a	-0.027001072
37	0xbce5f2b5	-0.028069833
38	0xbd2ff4c3	-0.042958032
39	0x3ba67c93	0.0050807684
40	0x3d3332b6	0.043749534
41	0x3be20571	0.0068976213
42	0x3d207029	0.039169464
43	0xbb9245d5	-0.004463891
44	0xbc27636f	-0.010216578
45	0x3ca6c707	0.020358576
46	0xbc4aff50	-0.012389973
47	0x3c36e00f	0.011161818
48	0xbc89d219	-0.016823815
49	0xbd41a746	-0.047278665
50	0xbcbe79bf	-0.023251412
51	0xbb834d01	-0.0040069823
52	0xbd1cabb1	-0.038249675
53	0x3c955edd	0.01823371
54	0xbcfac400	-0.030611038
55	0x3cc31e1a	0.023818064
56	0xbc9116ef	-0.01771113
57	0xbceff5c2	-0.029291991
58	0x3d19a138	0.037507266
59	0xbcd82769	-0.02638598
60	0xbba422f0	-0.0050090477
61	0xbc09be31	-0.008407162
62	0xbd371197	-0.04469451
63	0x3bedc4aa	0.00725611
64	0x3b9fa0e0	0.0048714727
65	0xbd3afdd3	-0.045652222
66	0x3d3d3b51	0.046199147
67	0x3c3fb58e	0.011701001
68	0x3c9941d2	0.018708143
69	0x3c4518aa	0.012029806
70	0xbcb871cb	-0.022515198
71	0xbd0352ce	-0.03206139
72	0x3b3f56a1	0.0029195922
73	0xbb17b8c7	-0.0023150907
74	0xbd21c546	-0.039494775
75	0x3d386c30	0.04502505
76	0x3cb104c7	0.021608723
77	0xbbf28ce7	-0.007402051
78	0x3d13b9ed	0.036065985
79	0x3ca20e6c	0.019782268
80	0x3ba1ce0d	0.0049378932
81	0x3be27fcd	0.0069122077
82	0x3d185cf9	0.03719804
83	0x3d2cf576	0.042226277
84	0x3cd5c054	0.026092686
85	0x3d49712e	0.049180202
86	0x3bbf49b4	0.0058376435
87	0xbd178497	-0.036991682
88	0x3cf9ff28	0.030517176
89	0x3cfc23c8	0.03077878
90	0x3c43b6ba	0.011945421
91	0x3cc236cc	0.02370777
92	0x3cd7865c	0.026309185
93	0x3d384ee3	0.044997107
94	0xbb923700	-0.004462123
95	0x3d06fb45	0.032954473
96	0xbbc1a442	-0.0059094736
97	0x3d2233f2	0.03960032
98	0xbd066bb3	-0.032817554
99	0xbd04eec3	-0.032454263
100	0x3b87418d	0.0041276873
101	0x3d088762	0.033332236
102	0xbb85a0e9	-0.00407802
103	0xbbfd2d49	-0.0077263457
104	0xbcb65b8e	-0.022260454
105	0x3cd8f59c	0.026484303
106	0x3d14c699	0.03632221
107	0x3c29ecf0	0.010371432
108	0x3c4771cd	0.012173128
109	0x3c9f5077	0.019447548
110	0x3d2a1f08	0.0415335
111	0x3c54c291	0.012985841
112	0xbceb581f	-0.028728543
113	0x3c69fca3	0.014281425
114	0xbb58ef69	-0.0033101684
115	0x3c8e5409	0.017374055
116	0x3b3041f2	0.0026894775
117	0x3b8b78b5	0.0042563328
118	0xbc0291ca	-0.007969329
119	0xbd301921	-0.042992715
120	0x39fda0f4	0.0004837584
121	0xbc04dcd0	-0.008109286
122	0x3ce35e6b	0.027754983
123	0xbd3ecb5f	-0.04658067
124	0xba42f19b	-0.0007436515
125	0xbc38da36	-0.011282494
126	0x3d243460	0.04008901
127	0xbcefd456	-0.029276054
128	0xbd253fec	-0.040344164
129	0xbc375e89	-0.0111919725
130	0xbd2db195	-0.042405684
131	0xbc1702b5	-0.009216954
132	0xbbfe322b	-0.0077574453
133	0x3c98ea2a	0.018666346
134	0x3abc87bb	0.0014383713
135	0x3cdb8eff	0.026801584
136	0xbb11ffe9	-0.0022277778
137	0x3c2711c2	0.010197105
138	0xbc2aa32f	-0.010414883
139	0xbced03a3	-0.028932398
140	0x3d022065	0.031769175
141	0x3d4955ed	0.04915421
142	0xbd3f82be	-0.046755545
143	0xbce0f48c	-0.027460359
144	0xbd2a5076	-0.04158064
145	0x3c74320d	0.014904511
146	0xbc248236	-0.01004081
147	0x3d3ea5a5	0.04654469
148	0x3d11aae0	0.03556335
149	0x3d3c8f86	0.046035312
150	0xbcae3b58	-0.021268532
151	0xbd2ca317	-0.042147722
152	0xbcb35023	-0.021888798
153	0xbbeb4a32	-0.0071804756
154	0x3cf72cac	0.030172668
155	0xbbc3f28e	-0.0059798425
156	0xbaa27781	-0.0012395234
157	0xbac27955	-0.0014837185
158	0x3d3401d7	0.043947067
159	0x3d42782e	0.047477894
160	0xbc5028bf	-0.012705027
161	0x3d2fc495	0.042912085
162	0x3d0f6f9f	0.03501856
163	0xbccb928b	-0.02485015
164	0x3ba7d8c4	0.005122276
165	0x3ca2e208	0.01988317
166	0xbb7be8b4	-0.0038438262
167	0xbd3bdf2b	-0.045867126
168	0xbaeb2c8b	-0.0017942352
169	0xbd40a122	-0.04702867
170	0x3c7d7efb	0.015472169
171	0xbd09c070	-0.03363079
172	0x3d0ad052	0.033890076
173	0x3cf33dfd	0.029692644
174	0x3d34cc50	0.04414016
175	0x3d466f5b	0.04844604
176	0xbd12d597	-0.035848226
177	0x3cc33b08	0.02383186
178	0x3d270b14	0.04078205
179	0x3d253e06	0.040342353
180	0xbd1ab561	-0.037770633
181	0xbd39b9f3	-0.04534335
182	0x3d241d4d	0.040067006
183	0xbc8f7ffa	-0.017517079
184	0x3c908a3c	0.01764404
185	0x3caaa5c3	0.020830994
186	0x3d2f365f	0.04277646
187	0xbcea8ece	-0.028632548
188	0xbd27d66f	-0.040975984
189	0xbd10637f	-0.035251137
190	0xbd0bbdab	-0.03411643
191	0xbd4553c2	-0.04817558
192	0x3cb68a19	0.022282647
193	0xbb70aa90	-0.0036722757
194	0x3d0a00e4	0.033692256
195	0xbc15b787	-0.009137995
196	0x3c8ba5fa	0.017046917
197	0xbc152273	-0.009102452
198	0xbce1e82f	-0.027576534
199	0x3a48755e	0.00076468836
200	0xbc334b53	-0.010943252
201	0x3cd5be3e	0.026091691
202	0xbc97f92f	-0.018551437
203	0xbb80ed9c	-0.0039345752
204	0x3d3045e1	0.04303539
205	0x3d0c88dc	0.034310207
206	0xbd47e3af	-0.04880112
207	0xbd160e47	-0.03663471
208	0x3a8e52b5	0.0010858389
209	0x3c1a44f9	0.009415858
210	0xbd28211f	-0.04104721
211	0x3cd0a493	0.0254691
212	0xbcecde9a	-0.028914738
213	0x3c5cc2b5	0.013474156
214	0xbd2ca220	-0.042146802
215	0x3cf245cc	0.029574297
216	0x3cda86e9	0.026675658
217	0x3d2861d7	0.041108932
218	0xbca613d2	-0.020273123
219	0x3ab060c2	0.001345657
220	0x3d12c32d	0.035830665
221	0xbcd660b2	-0.026169155
222	0x3bb1df30	0.0054282174
223	0xbd3ae054	-0.045624092
224	0xbadfe72e	-0.0017082447
225	0xbd3b871a	-0.04578314
226	0x3ca2a8dd	0.01985591
227	0xbd1e7328	-0.03868404
228	0x3c6655c0	0.01405853
229	0x3d3a76b5	0.045523364
230	0x3c8dbae8	0.017301038
231	0x3d1bc898	0.038033098
232	0xbcb6fbee	-0.022336926
233	0xbd24713e	-0.04014706
234	0x3ce9af0e	0.028525855
235	0x3cc9dcd7	0.024641437
236	0x3b81dee0	0.0039633363
237	0xbd2e37fa	-0.042533852
238	0x3cdcee98	0.02696924
239	0x3d2fb505	0.042897243
240	0xbd17a41d	-0.037021745
241	0xbcef5682	-0.029216055
242	0x3d27abfa	0.040935494
243	0x3c179e91	0.009254114
244	0x3d347372	0.04405541
245	0xbd0ca511	-0.034337107
246	0x3ca6e805	0.020374307
247	0xbce07078	-0.02739738
248	0x3d2eceea	0.042677797
249	0x3d222f0e	0.039595656
250	0x3cdf7435	0.027277092
251	0x3a1fd94b	0.0006097748
252	0xbd199158	-0.037492126
253	0xbd083a9f	-0.03325903
254	0x3b9c565b	0.0047710366
255	0x3cd9eb05	0.026601324

fc1.bias f4 [120]
0	0x3c852d3e	0.016256925
1	0xbd0d7f1f	-0.03454506
2	0x3d1afbe7	0.03783789
3	0x3bf846e7	0.0075768116
4	0x3c146e3a	0.009059483
5	0x3d14a63b	0.036291342
6	0x3c312678	0.010812394
7	0x3c58d29a	0.013233805
8	0x3ce08c18	0.027410552
9	0x3c0659fa	0.008200163
10	0x3b4945ee	0.0030711847
11	0xbd02e865	-0.03195991
12	0x3c2a99b9	0.010412627
13	0xbd36ad07	-0.044598605
14	0x3cef8df7	0.029242499
15	0xbd3c2ccc	-0.04594116
16	0xbc36b98d	-0.011152637
17	0x3d30ad03	0.043133747
18	0x3ab3ea48	0.0013726437
19	0x3c139fdc	0.009010281
20	0x3d2c0e85	0.042006034
21	0xbc5b9013	-0.013401049
22	0x3ce94f36	0.028480154
23	0x3ca6c678	0.02035831
24	0xbc15a463	-0.009133431
25	0x3d1b15cc	0.037862584
26	0xbc4d01a2	-0.012512596
27	0x3c9fbd8d	0.019499565
28	0xbb35ae38	-0.002772225
29	0xbc84b603	-0.016200071
30	0xbad0ec67	-0.0015939594
31	0x3d3053e1	0.043048743
32	0x3d42acd7	0.047528114
33	0xb9c6099a	-0.00037772657
34	0xbd20afad	-0.039230037
35	0xbcb0fb33	-0.021604156
36	0x3c1cabe0	0.009562463
37	0x3c822536	0.015886884
38	0x3d0a76ed	0.033804823
39	0x3c6a41a0	0.014297873
40	0x3d23e5d7	0.040014114
41	0xbc0b6847	-0.008508748
42	0x3d0030db	0.031296592
43	0xbcfc62be	-0.030808803
44	0x3c7a7047	0.015285558
45	0xbc294608	-0.010331638
46	0x3d4971a3	0.049180638
47	0xbd43a44e	-0.047764115
48	0x3cca6035	0.024704078
49	0x3c9cbb43	0.019132262
50	0x3d395888	0.045250446
51	0x3d0f8327	0.035037186
52	0xbcab857d	-0.020937676
53	0xbd40ea3a	-0.047098376
54	0xbc483c3d	-0.012221393
55	0x3b92f892	0.0044851983
56	0xbc52f7fb	-0.012876506
57	0x3d25dcd2	0.040493794
58	0x3cc4e7a0	0.024036229
59	0xbd215d79	-0.039395783
60	0x3d406cfc	0.046978936
61	0x3d121812	0.035667486
62	0x3cda8cea	0.026678521
63	0xbc5f6c69	-0.013636687
64	0x3bcf53a5	0.00632711
65	0xbd1d0f55	-0.0383447
66	0xbd1dd59d	-0.038533796
67	0xbd1731bd	-0.03691267
68	0xbd4c7897	-0.04991969
69	0xbd31c586	-0.043401264
70	0xbd2ade52	-0.041715927
71	0x3b3cef4a	0.002882915
72	0xbc9d0b53	-0.019170439
73	0xbc5336c5	-0.012891476
74	0xbc21c94a	-0.009874651
75	0x3bf51d66	0.007480311
76	0x3b443023	0.0029935918
77	0x3d2b23d3	0.04178221
78	0x3d381e47	0.04495075
79	0xbcd3d976	-0.02586053
80	0x3d0a4b69	0.033763323
81	0xbc29a88d	-0.010355127
82	0x3cae87be	0.021304961
83	0x3c9b906a	0.01898976
84	0x3cd70b97	0.026250644
85	0x3d15fb53	0.036616635
86	0xbd1a25d8	-0.037633747
87	0xbcd422f0	-0.025895566
88	0xbcf3b20a	-0.029747982
89	0xbd1fb7a7	-0.038993504
90	0x3c229e20	0.009925395
91	0xbcabe923	-0.020985192
92	0x3d1dd60f	0.03853422
93	0x3d11bb90	0.035579264
94	0xbc595c07	-0.01326657
95	0x3cf6f8da	0.030147959
96	0xbce69d7e	-0.02815127
97	0x3c82d929	0.01597269
98	0xbc8c620f	-0.017136602
99	0xbc97ad17	-0.018515153
100	0x3c7ad7d7	0.015310249
101	0xbd29f59d	-0.041494
102	0xbd1a1822	-0.03762067
103	0xbd1dd4c7	-0.038533
104	0x3ce3bd4a	0.027800221
105	0xbd2bbdfe	-0.041929238
106	0x3d19a612	0.037511893
107	0x3cd0afd9	0.025474476
108	0x3cac5124	0.021034785
109	0x3cdfeedd	0.027335579
110	0xbd2ff95d	-0.04296242
111	0xbd313275	-0.04326101
112	0x3c810cf3	0.015753245
113	0x3c47c2b1	0.012192414
114	0xbc4cb3a7	-0.012494004
115	0xbccc42ad	-0.024934137
116	0x3d18450c	0.037175223
117	0x3ca5bc2c	0.020231329
118	0x3d33a2df	0.043856498
119	0xbd30cc50	-0.043163598

fc2.weight f4 [84, 120]
0	0x3cfcdb4b	0.030866286
1	0x3b3ff3a9	0.002928952
2	0xbd435965	-0.047692675
3	0xbd402610	-0.0469113
4	0x3db83a70	0.08995521
5	0xbd9f0206	-0.07764058
6	0xbc05910a	-0.008152256
7	0x3d44eb38	0.048075885
8	0x3db1f78f	0.08689796
9	0x3da10bdd	0.07863591
10	0x3d286243	0.041109335
11	0x3c9e79f2	0.019345257
12	0x3d0190a8	0.031632096
13	0x3d1ce6ad	0.038305927
14	0xbc9113db	-0.017709663
15	0xbcf97785	-0.0304525
16	0xbd27987a	-0.040916897
17	0xbd818475	-0.06324092
18	0xbdb0c223	-0.08630779
19	0x3d655c96	0.0559965
20	0xbd8d9f1c	-0.06915113
21	0xbd6bb389	-0.057544265
22	0x3cfcb448	0.030847684
23	0x3d796eb7	0.0608966
24	0xbb759e36	-0.0037478334
25	0xbcda364c	-0.026637219
26	0xbb88429e	-0.004158332
27	0x3d97cc9b	0.07412072
28	0xbd3c236e	-0.045932226
29	0x3d181aa2	0.037134774
30	0xbd54dd48	-0.051968843
31	0x3d6f0448	0.058353692
32	0xbcf4b9f1	-0.02987382
33	0x3cc2e501	0.023790838
34	0xbc8e1826	-0.0173455
35	0x3d2af96c	0.041741773
36	0x3d636653	0.055517506
37	0x3d4da5c5	0.05020692
38	0xbc53cc61	-0.012927146
39	0x3d2c0779	0.041999314
40	0x3dae7f42	0.08520366
41	0xbc3d1282	-0.011540057
42	0xbdaed29b	-0.085362636
43	0xbd80d5ef	-0.062908046
44	0x3d2fa99b	0.042886358
45	0xbd306b84	-0.043071285
46	0x3ccfb9e7	0.0253572
47	0x3d857f60	0.065184355
48	0x3d988850	0.074478745
49	0xbcffe379	-0.031236397
50	0xbc7e0f76	-0.015506616
51	0x3d3722b0	0.044710815
52	0x3d844616	0.0645868
53	0xbd505260	-0.05085981
54	0x3be2bfe7	0.006919849
55	0xbdafb25f	-0.085789435
56	0xbd00a1d2	-0.031404324
57	0x3d947db2	0.07250537
58	0x3da05282	0.07828237
59	0xbc61b2fa	-0.0137755815
60	0x3c8f4150	0.017487198
61	0xbcf0a396	-0.029374879
62	0x3d88575a	0.06657286
63	0x3cb1fdcb	0.021727463
64	0x3d29a463	0.041416537
65	0x3d27b3bf	0.040942904
66	0x3d3cf273	0.046129655
67	0x3d3d887e	0.046272747
68	0x3d6e402b	0.058166664
69	0x3db65b4d	0.08904133
70	0xbd47d60d	-0.04878812
71	0x3da594a0	0.080849886
72	0xbd0ca24e	-0.034334473
73	0xbd9e3458	-0.077248275
74	0xbb7f59fc	-0.0038963547
75	0xbdab124d	-0.083531
76	0xbdb0a9f4	-0.08626166
77	0xbcbaf52a	-0.022821981
78	0x3c85809c	0.016296677
79	0xbd517fb9	-0.051147196
80	0x3d2bb8b4	0.041924194
81	0x3d6fcc2f	0.058544334
82	0x3985a667	0.00025491716
83	0x3d89ad29	0.06722481
84	0xbc1caab8	-0.009562187
85	0x3da0e798	0.07856673
86	0x3db89ee6	0.090146825
87	0xbdba84d2	-0.09107365
88	0x3d31bfcf	0.043395814
89	0x3d4e2abd	0.050333727
90	0xbc905ffa	-0.01762389
91	0xbd2d50ad	-0.042313267
92	0xbcd01fb9	-0.025405752
93	0x3dabf6ce	0.08396684
94	0x3db5864f	0.08863508
95	0xbc7ca78d	-0.015420807
96	0x3d53881f	0.051643487
97	0x3d2c9dd3	0.0421427
98	0x3d7b9f2d	0.0614311
99	0xbd97d7fd	-0.07414243
100	0xbc316d86	-0.010829335
101	0x3ba01298	0.004885029
102	0xb78ff6ad	-1.7161796e-05
103	0xbba1ea17	-0.0049412358
104	0xbc87f285	-0.016595135
105	0x3cabe7d4	0.020984568
106	0xbd6bddd3	-0.057584595
107	0xbda0e278	-0.078556955
108	0x3d508ed4	0.05091746
109	0x3db81619	0.0898859
110	0xbd669a59	-0.05629954
111	0x3dae6ff8	0.0851745
112	0xbdb2397c	-0.087023705
113	0xbd262928	-0.040566593
114	0x3c559304	0.01303554
115	0x3d7ad8ba	0.061241843
116	0xbd8ddf02	-0.06927301
117	0x3cd0f957	0.02550952
118	0xbd37e966	-0.04490032
119	0xbd8229eb	-0.063556515
120	0xbcb6bd75	-0.022307137
121	0x3d6ef17f	0.058335777
122	0x3d2b99a4	0.04189457
123	0xbb8a093c	-0.0042125266
124	0xbcdd949d	-0.027048403
125	0x3db2323e	0.08700989
126	0xbc931eea	-0.017959077
127	0xbce02fc9	-0.027366536
128	0xbc3a1099	-0.011356496
129	0xbd13f4f1	-0.036122266
130	0xbb8f7dfd	-0.0043790326
131	0xbd8b7d87	-0.06811052
132	0x3daecfe6	0.08535747
133	0x3d749877	0.059715714
134	0x3d961f26	0.0733016
135	0x3d0de5e1	0.034643058
136	0xbd45df52	-0.048308678
137	0x3d3d4e15	0.046217043
138	0xbd81fd32	-0.06347121
139	0xbd04602e	-0.032318287
140	0xbd9d65de	-0.07685445
141	0xbd466358	-0.048434585
142	0xbd855c43	-0.06511738
143	0xbdb8c6d0	-0.090222955
144	0xbcebee45	-0.02880014
145	0x3ced4f5d	0.028968507
146	0x3d51dfcb	0.051238816
147	0xbcb99df1	-0.02265832
148	0x3c611827	0.0137386685
149	0xbd94e866	-0.07270889
150	0xbcea55d6	-0.028605383
151	0xbd571366	-0.052508734
152	0x3cb4e9cc	0.02208414
153	0x3d9f82df	0.077886336
154	0x3d0171af	0.031602558
155	0xbd0bcd55	-0.034131367
156	0x3d8d72eb	0.069066845
157	0x3a126efe	0.0005585997
158	0xbda33c7a	-0.07970519
159	0xbcd2ebc4	-0.025747187
160	0xbceb6544	-0.02873481
161	0xbcbf720e	-0.023369815
162	0x3da7219d	0.08160708
163	0xbd9d0496	-0.0766689
164	0xbd80cb1a	-0.062887385
165	0x3c15405e	0.009109585
166	0xbd2edaac	-0.04268901
167	0xbccdc7ce	-0.025119688
168	0x3d97d553	0.07413735
169	0xbc8b6d36	-0.01701985
170	0xbd369cdd	-0.04458319
171	0x3bc6f644	0.0060718376
172	0x3d67125c	0.056413993
173	0xbd04911b	-0.032364946
174	0xbd1fc022	-0.03900159
175	0xbdabf1c7	-0.08395725
176	0xbd9af553	-0.07566323
177	0x3d85b1b2	0.06528033
178	0x3db99ed1	0.09063495
179	0x3ca35349	0.019937174
180	0x3cc83b2b	0.024442276
181	0xbd860427	-0.06543761
182	0x3d8b9e7b	0.06817337
183	0x3cc4ad35	0.024008373
184	0xbd24df0e	-0.040251784
185	0x3db884a7	0.090096764
186	0x3cd7099c	0.0262497
187	0x3c1d2ba3	0.009592923
188	0x3d8cdd83	0.068781875
189	0x3c8d57c1	0.017253758
190	0x3db2be0b	0.08727654
191	0x3c47f644	0.01220471
192	0x39c02468	0.00036648219
193	0xbd888e3c	-0.06667754
194	0xbd98c3d9	-0.0745923
195	0xbda22168	-0.07916528
196	0xbc8a663e	-0.016894456
197	0x3ca977f6	0.020687085
198	0x3d694429	0.05694977
199	0x3c21e627	0.009881533
200	0x3d1377e3	0.036003005
201	0x3d3ecc73	0.046581697
202	0xbbba0db6	-0.005677904
203	0x3d9ad095	0.07559315
204	0xbd16fe31	-0.03686351
205	0xbd9561ab	-0.07294019
206	0x3d8067e3	0.06269815
207	0x3db39e96	0.08770482
208	0xbd9c6bc6	-0.07637744
209	0xbbe498c7	-0.0069762203
210	0xbcce3c93	-0.025175368
211	0xbcaf7579	-0.02141832
212	0x3dad320b	0.084568106
213	0xbd37e79a	-0.044898607
214	0xbca82359	-0.020524668
215	0x3c921133	0.017830467
216	0xbc8d6df0	-0.017264336
217	0xbd231bb3	-0.039821338
218	0x3d771d74	0.060330823
219	0xbd3dc8bf	-0.046334025
220	0x3d96fcec	0.0737246
221	0x3d7341ce	0.059388928
222	0xbd3e96bb	-0.046530467
223	0xbd5840ae	-0.05279606
224	0x3caa6942	0.020802144
225	0x3cfdadb6	0.03096662
226	0xbd4f6683	-0.050634872
227	0xbc329d54	-0.010901768
228	0x3c02283d	0.007944164
229	0xbd1c4f4f	-0.038161572
230	0xbc6372c9	-0.013882347
231	0xbc8235f6	-0.015894871
232	0x3db98095	0.09057728
233	0x3d6b4c41	0.05744577
234	0x3db42e8d	0.08797941
235	0x3d673dc6	0.056455396
236	0x3c81109e	0.015754994
237	0xbd40ee93	-0.047102522
238	0x3d2dee4e	0.042463593
239	0x3d0f56f2	0.034995027
240	0xbd62877b	-0.055304985
241	0x3d17525d	0.036943782
242	0xbc9b9769	-0.018993096
243	0x3b4ddf82	0.0031413739
244	0xbd6e5325	-0.05818476
245	0xbd9801fb	-0.07422253
246	0xbdad3596	-0.08457486
247	0xbd97f1c6	-0.074191615
248	0x3db79cca	0.08965452
249	0xbc00a9b5	-0.007852961
250	0x3d7a08df	0.061043616
251	0x3cfd0d62	0.03089017
252	0x3cb9670a	0.02263214
253	0xbd0399f2	-0.032129236
254	0x3da658cd	0.08122406
255	0x3d8cff53	0.06884637

fc2.bias f4 [84]
0	0xbd53c8c9	-0.051705156
1	0x3dacffd8	0.08447236
2	0xbd841b30	-0.06450498
3	0xbbc6c8da	-0.006066424
4	0xbd9f2f80	-0.07772732
5	0x3c14d4df	0.009083956
6	0xbd708faa	-0.05873076
7	0x3d78b0e4	0.06071557
8	0xbd661ee6	-0.05618181
9	0x3d9ebaac	0.077504486
10	0x3c4b2d0f	0.0124008795
11	0x3d007b64	0.031367674
12	0x3d579aa1	0.0526377
13	0xbd7129d3	-0.058877777
14	0xbc843c15	-0.01614193
15	0x3cc6e2cd	0.024278069
16	0xbdafd4cc	-0.0858551
17	0xbd34aaf2	-0.04410834
18	0xbdb13e53	-0.086544655
19	0xbd504956	-0.05085119
20	0xbd8d3841	-0.06895495
21	0x3d79eacd	0.06101494
22	0x3c9a54f0	0.01883933
23	0x3caf0f32	0.02136955
24	0xbd88db33	-0.06682434
25	0x3b3eb62a	0.0029100277
26	0x3dad109a	0.08450432
27	0xbdb0ef33	-0.08639374
28	0x3c56acae	0.0131026935
29	0xbda36c7e	-0.079796776
30	0xbdaedfdb	-0.08538791
31	0xbbae24b1	-0.0053144326
32	0x3d5d79e7	0.054071333
33	0x3cbd7438	0.023126706
34	0x3db5e44f	0.08881437
35	0x3d236146	0.03988769
36	0x3d3cb8eb	0.04607479
37	0xbc2da992	-0.010599511
38	0xbd086ac1	-0.033304933
39	0x3d67d195	0.056596357
40	0x3d8a2597	0.06745451
41	0x3b9393fc	0.004503725
42	0x3bf13a70	0.0073617026
43	0x3d87d861	0.06633068
44	0xbcf2704e	-0.029594567
45	0xbd3f2d8e	-0.046674304
46	0x3cbc39e2	0.02297682
47	0xbd3c091f	-0.045907136
48	0x3d600737	0.05469438
49	0x3c029448	0.007969923
50	0x3d248e29	0.040174637
51	0xbd9473f5	-0.072486795
52	0xbc46cf9d	-0.01213446
53	0xbb90c8a4	-0.0044184495
54	0xbd29a492	-0.041416712
55	0xbd59380e	-0.053031974
56	0xbd64bcdf	-0.055844184
57	0xbd7dc42c	-0.061954662
58	0xbd35f8ef	-0.044426855
59	0x3ce5e331	0.028062435
60	0x3da65380	0.08121395
61	0x3d3fdfa3	0.046844136
62	0x3c81630e	0.015794303
63	0xbc3b3706	-0.011426693
64	0x3d068fe0	0.032852054
65	0xbd6aeef0	-0.057356775
66	0xbd188d50	-0.03724414
67	0x3d903642	0.07041599
68	0xbafddad7	-0.0019367588
69	0xbc9278ad	-0.017879808
70	0x3c50020b	0.0126958
71	0x3d31b37e	0.043384068
72	0xbd1ad74c	-0.03780298
73	0x3ce7b62d	0.02828511
74	0x3dab93c9	0.08377797
75	0xbba66260	-0.005077645
76	0xbd13ffce	-0.036132626
77	0xbcc9b52d	-0.024622524
78	0x3db2913a	0.08719106
79	0x3d9876d5	0.074445404
80	0xbb863c23	-0.0040965243
81	0x3db12e70	0.086514354
82	0x3d668523	0.056279313
83	0x3d801acd	0.06255112

fc3.weight f4 [3, 84]
0	0xbd0ce536	-0.03439828
1	0xbc2d85d6	-0.010590991
2	0xbd596d09	-0.0530825
3	0x3ad81592	0.0016485921
4	0xbd6b810d	-0.05749612
5	0xbd942c3e	-0.07235001
6	0xbda7c3d7	-0.0819165
7	0x3b1ff5a5	0.002440789
8	0x3ca48b88	0.020086065
9	0x3dbf828d	0.093510725
10	0xbdd74da9	-0.105128594
11	0xbd986ddf	-0.07442831
12	0xbcef83ae	-0.029237594
13	0x3d7b954f	0.06142169
14	0xbdb4e649	-0.08832986
15	0x3dc08fce	0.094024286
16	0xbc874d58	-0.016516373
17	0xbd8b8944	-0.06813291
18	0x3c372f30	0.011180684
19	0x3d94461a	0.07239933
20	0xbda5e25d	-0.08099816
21	0x3dae4a9c	0.08510324
22	0xbb898226	-0.004196423
23	0xbc4aeba6	-0.0123852845
24	0x3baba1f4	0.005237812
25	0xbd0c877f	-0.034308907
26	0xbdbdbd7e	-0.092646584
27	0x3d6f4328	0.058413655
28	0x3dd87570	0.105692744
29	0xbd315588	-0.04329446
30	0x3cb08dac	0.02155193
31	0xbd96c2a5	-0.07361344
32	0x3c87e886	0.016590368
33	0x3ddddaa5	0.10832719
34	0xbdba4e62	-0.090969816
35	0x3ca86b8f	0.0205591
36	0x3dd23602	0.102642074
37	0xbdc5d703	-0.09660151
38	0xbbae4328	-0.0053180642
39	0xbd8b41f5	-0.0679969
40	0xbd9efc2e	-0.07762943
41	0xbb86468e	-0.0040977662
42	0xbd7b1671	-0.0613007
43	0xbdac5de9	-0.084163494
44	0xbd2b7457	-0.041858997
45	0xbc899dea	-0.016798932
46	0x3cb43a44	0.02200044
47	0x3d918fdd	0.07107518
48	0x3ce730c6	0.0282215
49	0x3d357923	0.044304978
50	0x3db6305e	0.08895944
51	0x3d58717e	0.05284261
52	0xbda099db	-0.078418456
53	0x3d2040b2	0.0391242
54	0x3a62392d	0.00086297357
55	0xbc1fe77f	-0.009759783
56	0xbcbcc168	-0.023041442
57	0xbd96e6f2	-0.07368268
58	0x3d627db6	0.05529567
59	0xbd803c96	-0.06261556
60	0x3d6cfaf6	0.057856523
61	0x3b1b4448	0.0023691822
62	0xbd752668	-0.05985108
63	0xbcbfba9c	-0.023404412
64	0x3ccfee2f	0.02538213
65	0xbcec7f2a	-0.02886923
66	0xbd897218	-0.06711215
67	0xbdd289a5	-0.1028016
68	0xbcdd48a9	-0.027012186
69	0xbca9364b	-0.020655772
70	0xbd900df4	-0.07033911
71	0x3dc8529b	0.09781381
72	0xbc986078	-0.018600687
73	0xbcaa95c1	-0.020823361
74	0xbdb28147	-0.08716064
75	0xbdcbaa92	-0.09944643
76	0x3d0e4539	0.034733985
77	0x3d25307b	0.040329438
78	0x3cd31ef8	0.025771603
79	0x3dbd6edc	0.092496604
80	0x3dd61ddc	0.10454914
81	0xbd301a34	-0.04299374
82	0xbdcdc5db	-0.100475036
83	0x3d46be41	0.048521284
84	0x3dad3a7d	0.084584214
85	0xbd991743	-0.0747514
86	0x3dd69ecc	0.10479507
87	0x3dcba7fb	0.09944149
88	0xbda88967	-0.082293324
89	0xbda1bf49	-0.07897813
90	0xbcaeb477	-0.021326287
91	0x3c80e799	0.015735434
92	0xbd7bf45d	-0.06151234
93	0xbd342db7	-0.04398891
94	0xbc16b4a7	-0.009198344
95	0xbd232d8e	-0.039838366
96	0xbb7bf5b1	-0.0038446004
97	0x3d80e474	0.06293574
98	0xbdd67b58	-0.10472745
99	0xbd29f44b	-0.04149274
100	0xbcfcaf26	-0.030845236
101	0xbdaf038f	-0.085456006
102	0x3d6eea93	0.058329176
103	0x3d9b17fa	0.075729325
104	0xbd5fdebe	-0.054655783
105	0x3d74d51a	0.059773542
106	0x3d61e777	0.055152383
107	0xbd78e174	-0.060761884
108	0xbdded72a	-0.10880883
109	0x3dc85812	0.09782423
110	0x3d5e35d8	0.05425057
111	0x3cdc94a0	0.026926339
112	0x3ccc2957	0.024922056
113	0x3d86c502	0.06580545
114	0x3d5b1fc3	0.053497087
115	0xbc369f8c	-0.011146437
116	0x3c8b89f8	0.017033562
117	0x3dae950e	0.08524524
118	0xbcc13a35	-0.023587326
119	0xbdb01b89	-0.08599002
120	0xbd857cc5	-0.065179385
121	0xbd81cace	-0.0633751
122	0x3a1e16b1	0.0006030603
123	0xbd83146d	-0.0640038
124	0x3d9fd120	0.07803559
125	0xbd7b5dfa	-0.06136892
126	0xbdcefd8a	-0.101069525
127	0x3dd8e243	0.10590031
128	0xbcc3ef8d	-0.023917938
129	0xbb919e7d	-0.004443942
130	0x3dd77099	0.10519523
131	0xbd2be696	-0.04196795
132	0xbdc5f68b	-0.09666165
133	0xbda1bd36	-0.07897417
134	0x3bbc8cc8	0.005754087
135	0x3d1e9d51	0.038724247
136	0x3c8d9ce5	0.017286727
137	0xbd5a5dc7	-0.05331209
138	0xbd588c46	-0.05286815
139	0xbd0f8f66	-0.035048865
140	0x3d420be3	0.047374617
141	0xbdc794a3	-0.09745147
142	0xbda9ea15	-0.08296601
143	0xbdb5bc96	-0.088738605
144	0xbbbda176	-0.00578707
145	0x3c81eea7	0.015860869
146	0x3d537587	0.051625755
147	0x3d5af21b	0.053453546
148	0x3be729ac	0.007054528
149	0x3d82cb2f	0.063864104
150	0x3c85162b	0.016245922
151	0xbd2413f9	-0.04005811
152	0xbc3248fd	-0.01088166
153	0x3db936c6	0.0904365
154	0xbd034d01	-0.03205586
155	0x3da15ef5	0.0787944
156	0x3dbbd686	0.091717765
157	0xbb34b55c	-0.002757392
158	0xbd61eaf2	-0.055155702
159	0x3d246c0d	0.040142108
160	0x3d0c6179	0.034272645
161	0xbdbce9b0	-0.0922426
162	0xbcad7e1b	-0.021178296
163	0xbd8f62b8	-0.07001251
164	0xbd409f96	-0.047027193
165	0xbdc8e26c	-0.098088115
166	0xbdd3238c	-0.103095144
167	0x3d3f0e47	0.046644475
168	0x3dc3a15a	0.0955226
169	0x3d852955	0.06502024
170	0xbdc45c1e	-0.095878825
171	0xbd19175c	-0.037375793
172	0x3db41e98	0.08794898
173	0x3d129895	0.035790045
174	0xbc93f37b	-0.018060436
175	0xbb58a2c1	-0.0033055993
176	0x3cf8a90a	0.030354042
177	0x3cbc2a61	0.022969427
178	0x3ccd37c4	0.025051005
179	0xbd247919	-0.04015455
180	0x3d31ab94	0.04337652
181	0xbcaaa2ea	-0.020829637
182	0xbbd854a6	-0.0066018878
183	0xbddce9c3	-0.10786774
184	0xba052841	-0.00050795457
185	0xbc83664a	-0.016039986
186	0x3d5f2ab3	0.05448408
187	0x3cafaaf0	0.021443814
188	0xbd274f9b	-0.040847402
189	0xbd753c6c	-0.059872076
190	0xbcc439a6	-0.02395327
191	0x3d97e87a	0.07417388
192	0x3db168b4	0.08662549
193	0x3c8fe619	0.017565774
194	0xbc59c162	-0.013290735
195	0xbd8f9c4f	-0.070122354
196	0x3daf792e	0.08568035
197	0xbdbbe2b2	-0.09174098
198	0xbddd0055	-0.10791079
199	0x3d165eac	0.03671138
200	0x3ccc97a1	0.024974646
201	0xbc13980c	-0.009008419
202	0xbdb8f1b5	-0.09030477
203	0xbd9a221e	-0.075260386
204	0x3dda148c	0.1064845
205	0xbc00c56c	-0.007859569
206	0xbd3bdb5d	-0.045863498
207	0xbd3e90a0	-0.046524644
208	0x3c595117	0.013263962
209	0xbc2a8acd	-0.010409069
210	0x3ca8b0f0	0.020592183
211	0x3caf7257	0.021416826
212	0x3dc1896d	0.0945004
213	0x3d12ffe5	0.03588857
214	0xbc543422	-0.012951883
215	0xbdaff1d1	-0.08591045
216	0xbd1ec8e8	-0.038765818
217	0xbd2b903f	-0.04188561
218	0x3da3ea9c	0.080037326
219	0xbc7174c8	-0.0147373155
220	0xbd291fe7	-0.04129019
221	0x3b83a6b7	0.0040176767
222	0x3c70fa93	0.014708179
223	0x3da50211	0.08057035
224	0xbd0d7807	-0.034538295
225	0xbd87ae9c	-0.06625101
226	0x3ca9ce0d	0.020728135
227	0x3cb7f091	0.022453578
228	0xbcff9dc0	-0.03120315
229	0xbd840a15	-0.064472355
230	0xbda897df	-0.08232092
231	0x3d400f57	0.04688963
232	0x3c8f7f42	0.017516736
233	0xbd86f271	-0.06589211
234	0xbd3ebbee	-0.046565942
235	0xbcd8366e	-0.026393142
236	0xbcc76efb	-0.024344912
237	0xbd3290e0	-0.043595195
238	0xbcda0f5b	-0.02661865
239	0xbc6ab97f	-0.014326452
240	0x3d10d1b5	0.035356242
241	0x3d986016	0.07440202
242	0xbcd1753f	-0.025568603
243	0xbc467ee0	-0.01211521
244	0xbd704b61	-0.058665637
245	0x3dbe5a0d	0.092945196
246	0x3b9c2afe	0.0047658673
247	0xbc6d48c0	-0.014482677
248	0xbce1bb40	-0.027555108
249	0xbd0b1cb2	-0.033962913
250	0x3b587a71	0.0033031965
251	0x3d80f15d	0.062960364

fc3.bias f4 [3]
0	0xbcac6f18	-0.021049067
1	0xbd4e0fea	-0.050308146
2	0xbd9f930e	-0.0779172
